model/digit_classifier_params.pth (torch, 203223 bytes, 6 tensors)

conv1.weight f4 [32, 1, 3, 3]
0	0x3e257871	0.16159226
1	0x3ed0a706	0.4075243
2	0x3f00016e	0.5000218
3	0x3ed01c67	0.4064667
4	0x3d9111a2	0.07083441
5	0xbe3b382e	-0.1828315
6	0xbf3944f1	-0.7237082
7	0xbf313a86	-0.69229925
8	0xbf0641c9	-0.5244413
9	0xbdc173cc	-0.094459146
10	0x3e426657	0.18984352
11	0x3da671ea	0.08127196
12	0x3c5eb7d9	0.013593637
13	0xbe8bfb51	-0.27340177
14	0xbe35513b	-0.17706768
15	0x3e8146b2	0.2524925
16	0xbed9d2c2	-0.42543608
17	0x3eb1aefa	0.3470381
18	0x3e69e74d	0.2284214
19	0x3f352810	0.70764256
20	0x3ec5711e	0.38562864
21	0xbe156516	-0.14589342
22	0xbd4047cf	-0.046943482
23	0x3e8b9da9	0.27268723
24	0xbf30e5b0	-0.69100475
25	0xbf311f1f	-0.6918811
26	0xbe92e4bc	-0.28690135
27	0x3e11e90b	0.14249055
28	0x3d8bc826	0.06825285
29	0xbf68a559	-0.908773
30	0x3ebda473	0.37039527
31	0x3f33f0ef	0.7028951
32	0x3e0bcece	0.13653108
33	0xbf0a8fd5	-0.5412572
34	0x3ebb179c	0.3654145
35	0x3d2c1020	0.042007565
36	0xbf0d68a7	-0.5523781
37	0xbe9f740a	-0.31143218
38	0x3e96d65e	0.29460424
39	0xbee4098a	-0.44538528
40	0x3e27bb93	0.16380148
41	0x3eff4fb6	0.49865502
42	0xbbdb40b0	-0.006691061
43	0x3f00d967	0.5033173
44	0x3d209f2f	0.03921431
45	0xbf01905c	-0.506109
46	0xbdc158b4	-0.09440747
47	0x3e5cfde5	0.21581228
48	0x3f10c6c0	0.5655327
49	0x3ea65047	0.32483122
50	0x3e2e9605	0.17049415
51	0xbf2d7e35	-0.677707
52	0xbee7fdec	-0.45310915
53	0x3da2dce6	0.07952289
54	0xbeea0931	-0.45710137
55	0xbebdfc0c	-0.3710636
56	0x3f2cb08b	0.67456883
57	0x3e9b8bc0	0.30380058
58	0xbf293218	-0.6609206
59	0x3e849231	0.25892785
60	0x3f0a2a39	0.53970677
61	0xbf24006a	-0.6406313
62	0xbd41919f	-0.047258016
63	0xbec39a35	-0.38203588
64	0x3e548568	0.20754015
65	0x3f38397a	0.719627
66	0xbf515596	-0.8177122
67	0xbe0c56d6	-0.13705
68	0x3f049e93	0.51804465
69	0xbf262bb1	-0.6491042
70	0xbdcfdf60	-0.10150027
71	0x3ea711e0	0.32630825
72	0x3e778dc6	0.24175176
73	0xbf25f116	-0.6482099
74	0xbf70d001	-0.9406739
75	0x3f3f576f	0.7474279
76	0x3f39ba37	0.72549766
77	0x3d3bab7e	0.045817845
78	0xbe50cd2d	-0.20390768
79	0x3db4ce3f	0.08828401
80	0x3d1c761a	0.038198568
81	0xbea79993	-0.32734355
82	0xbe47ec5a	-0.19523755
83	0xbdc1c5fc	-0.09461591
84	0x3e900953	0.28132114
85	0x3d0f9888	0.035057575
86	0xbd63c040	-0.055603266
87	0xbe402828	-0.18765318
88	0xbdbcc750	-0.09217703
89	0xbea2963f	-0.31755254
90	0xbf1acab1	-0.6046553
91	0xbdba3fe1	-0.09094215
92	0x3e32c26e	0.17456982
93	0xbf44bc85	-0.7685016
94	0x3e9b800a	0.30371124
95	0x3e1d4784	0.15359312
96	0xbf078205	-0.5293277
97	0x3ec35f8b	0.3815883
98	0x3eb15602	0.3463593
99	0xbf22af75	-0.63548976
100	0xbeab4b16	-0.33455724
101	0x3dc5a30e	0.09650241
102	0x3f239d1c	0.63911605
103	0x3eed1362	0.4630385
104	0xbe4fbff6	-0.20288071
105	0xbe88875e	-0.26665777
106	0xbe03bc89	-0.12864889
107	0x3de687c3	0.11256363
108	0x3ef7be6c	0.48387468
109	0x3c00821a	0.007843519
110	0xbf539250	-0.8264513
111	0xbdd3c5bc	-0.10340449
112	0x3eb8347b	0.3597754
113	0xbdbe997e	-0.0930662
114	0x3edaaf55	0.42711893
115	0x3d8a1bf3	0.06743612
116	0xbde5ed9a	-0.112269595
117	0xbf05ac6c	-0.5221622
118	0x3df37ecf	0.11889421
119	0x3e3891ab	0.18024318
120	0x3d3cbe0f	0.04607969
121	0x3f1a5163	0.60280436
122	0x3cac6883	0.021045929
123	0x3ee399cd	0.44453278
124	0xbe9fa67b	-0.31181702
125	0xbf0eaf5f	-0.55736345
126	0x3e969572	0.29410893
127	0x3e26e3ca	0.16297832
128	0xbe4e8a5f	-0.20169972
129	0xbea14e77	-0.31505176
130	0x3e8f70dd	0.28015795
131	0x3e25a38f	0.16175674
132	0x3e44b774	0.19210607
133	0x3c533a40	0.012892306
134	0x3d19c9d8	0.03754601
135	0x3e3e5bea	0.1858975
136	0xbeaa7d9a	-0.3329895
137	0xbda9ac79	-0.0828485
138	0x3ed73c12	0.42038018
139	0xbca2c230	-0.019867986
140	0x3ee95cfa	0.45578748
141	0x3e7172f3	0.23579006
142	0xbefca348	-0.49343324
143	0xbe84b5ba	-0.25919896
144	0xbdaba4ee	-0.08381067
145	0x3ec55b08	0.38546014
146	0x3ea1ce8b	0.31602892
147	0x3ec6582e	0.3873915
148	0x3ad519b1	0.0016258267
149	0xbee127ec	-0.4397577
150	0x3ee2e9da	0.4431904
151	0xbeec35c6	-0.46134776
152	0xbeec8da9	-0.46201828
153	0x3d169e9b	0.03677235
154	0xbdc328c9	-0.095292635
155	0x3aba29bb	0.001420311
156	0x3e7da9dd	0.24771829
157	0x3c84ddd1	0.016219052
158	0xbec95541	-0.39322856
159	0x3e95f86a	0.29291087
160	0x3e7ff86c	0.24997109
161	0x3c0d7bcc	0.0086354725
162	0xbf330777	-0.69933265
163	0xbd9bda92	-0.07610048
164	0xbdb35ca2	-0.08757903
165	0xbd568307	-0.05237105
166	0x3f83391f	1.0251807
167	0xbe15fa2b	-0.14646213
168	0xbd46e259	-0.048555706
169	0xbe6ad396	-0.22932276
170	0xbef2475d	-0.4732007
171	0x3efef722	0.49797922
172	0x3eb4dba9	0.35323837
173	0xbde54bc3	-0.11196091
174	0xbda951f0	-0.082675815
175	0x3ed8f2f6	0.42372864
176	0xbe30c5e8	-0.17262995
177	0xbf8aedea	-1.0853856
178	0xbc212b39	-0.009836965
179	0x3da3945b	0.07987281
180	0xbe4ba040	-0.1988535
181	0x3e33edc3	0.17571168
182	0x3e88bb82	0.26705557
183	0xbe68737b	-0.22700302
184	0x3e8d7510	0.27628374
185	0x3d34c933	0.04413719
186	0x3e749ef8	0.23888767
187	0x3ebc2bdd	0.36752215
188	0xbcf8d385	-0.030374298
189	0x3eb49622	0.35270792
190	0x3f269695	0.6507352
191	0x3f06e645	0.52695113
192	0xbdb44cc7	-0.088037066
193	0xbe27faf6	-0.16404328
194	0xbe5bd5d6	-0.2146829
195	0xbeda1c00	-0.42599487
196	0xbf3cb91d	-0.7371996
197	0xbe427789	-0.18990912
198	0x3d9560ae	0.07293831
199	0x3f0ea2f8	0.5571742
200	0xbef417c0	-0.4767437
201	0x3f3814ed	0.7190693
202	0xbeab203d	-0.33423033
203	0xbf14b44e	-0.58087623
204	0x3eb6b217	0.35682747
205	0xbefaa0f3	-0.4895092
206	0xbe963fad	-0.29345456
207	0x3e766691	0.24062563
208	0x3ebc5d58	0.36789966
209	0x3d97f51a	0.07419796
210	0x3f33bb97	0.70208114
211	0x3ecf0879	0.40436152
212	0xbe9f534c	-0.31118238
213	0xbe1ed09d	-0.15509267
214	0xbf576132	-0.84132683
215	0xbf3b9500	-0.7327423
216	0x3f10d3ce	0.5657319
217	0x3df11360	0.117712736
218	0xbf8c0eea	-1.0942051
219	0x3eeae644	0.45878804
220	0xbf1ffc06	-0.6249393
221	0xbf8efab0	-1.1170254
222	0xbf0aa2f5	-0.541549
223	0xbf934f0f	-1.1508502
224	0x3e0c0eee	0.1367757
225	0x3d4e69c5	0.05039384
226	0x3e190862	0.14944604
227	0x3e95524a	0.29164344
228	0x3e86a252	0.26295716
229	0x3e78fdea	0.2431561
230	0x3e5f9e01	0.21837617
231	0xbe7d2751	-0.2472203
232	0xbef6902c	-0.4815687
233	0x3e86a915	0.26300874
234	0xbd1b35a1	-0.03789294
235	0xbdbfc4fc	-0.09363744
236	0x3cbfcd7d	0.023413414
237	0x3d557082	0.05210925
238	0xbb77e629	-0.0037826395
239	0x3dc0e7ee	0.09419237
240	0xbdcb05ee	-0.099132404
241	0xbe1af249	-0.15131487
242	0xbdf11c2a	-0.1177295
243	0xbf39a7e9	-0.72521836
244	0x3cbf0ba0	0.023320973
245	0x3eed36e5	0.46330944
246	0x3da99934	0.08281174
247	0x3f1a4365	0.60259086
248	0x3d2310dd	0.039811004
249	0x3f04c996	0.51870096
250	0x3e018b8f	0.12650894
251	0xbf2f3ed8	-0.68455267
252	0x3e196aea	0.1498219
253	0x3db16e4f	0.08663618
254	0xbf00378b	-0.5008475
255	0x3d3e0e89	0.04640058

conv1.bias f4 [32]
0	0x3d63ed8f	0.055646475
1	0xbe4d58df	-0.20053433
2	0xbcaa6328	-0.020799235
3	0xbe936abc	-0.2879237
4	0xbe4be943	-0.19913201
5	0xbe1847a6	-0.14871082
6	0xbb902821	-0.004399315
7	0xbd9aeab7	-0.075642996
8	0xbde49a8f	-0.11162292
9	0xbea121ec	-0.31471193
10	0xbc8b4ee1	-0.017005386
11	0xbdf84936	-0.12123339
12	0xbcf4255d	-0.029802972
13	0xbe4d1169	-0.20026173
14	0xbec47855	-0.38373056
15	0xbde9bf13	-0.11413398
16	0xbe61117d	-0.21979327
17	0xbe437501	-0.19087602
18	0xbbe59552	-0.0070063258
19	0xbdc3c1ac	-0.09558424
20	0xbf019899	-0.5062347
21	0x3da962c2	0.0827079
22	0x3d8ee7f0	0.06977832
23	0xbd48692d	-0.04892843
24	0x3ee110bc	0.4395808
25	0xbea51f77	-0.32250568
26	0xbe4ad473	-0.19807605
27	0xbecd7c6b	-0.40133986
28	0xbe9bbf2b	-0.30419287
29	0x3e209515	0.1568187
30	0xbe40e4ea	-0.18837324
31	0x3d3621ae	0.044465713

conv2.weight f4 [64, 32, 3, 3]
0	0xbed596e3	-0.4171668
1	0xbc872da6	-0.016501259
2	0xbdff567f	-0.1246767
3	0x3e1d7f9d	0.15380712
4	0x3e0e1460	0.1387496
5	0xbd8a5620	-0.06754708
6	0x3e13b154	0.14423114
7	0x3dcdf1a3	0.10055854
8	0x3cf98421	0.030458512
9	0x3e051957	0.12997948
10	0xbe893e33	-0.26805267
11	0xbe5c3054	-0.2150281
12	0xbd037a44	-0.032099023
13	0x3e349537	0.17635046
14	0x3dfd75bd	0.123759724
15	0x3d68335e	0.056689613
16	0x3e291895	0.16513284
17	0xbdc67672	-0.096905604
18	0xbf320545	-0.6953929
19	0xbdb98f0d	-0.09060488
20	0xbd83e800	-0.06440735
21	0xbe025063	-0.12725978
22	0xbbdb87b2	-0.0066995258
23	0xbd5bc294	-0.05365236
24	0x3e604ed2	0.21905068
25	0x3e4cfb02	0.20017627
26	0x3e0d3a8e	0.13791868
27	0x3cfb7037	0.030693157
28	0x3e9508d1	0.2910829
29	0xbcb6efbd	-0.022331113
30	0xbe420b55	-0.18949635
31	0x3dc3c8de	0.09559797
32	0xbe2fdb7f	-0.17173575
33	0xbc964ff4	-0.018348671
34	0xbd8a61a4	-0.06756905
35	0xbf24e242	-0.6440774
36	0x3d3c6caa	0.046002068
37	0xbe69a616	-0.22817263
38	0xbf0c24af	-0.54743475
39	0xbecba067	-0.39770815
40	0xbe5bd029	-0.21466126
41	0xbd8cee67	-0.06881409
42	0xbe2365f6	-0.15956864
43	0xbe98e6bb	-0.29863533
44	0xbe9041d2	-0.28175217
45	0x3e1630b5	0.14667018
46	0x3c86004e	0.016357567
47	0x3e7b0f03	0.24517445
48	0x3dc17887	0.09446817
49	0xbec4b524	-0.3841945
50	0x3e2a80ba	0.16650668
51	0xbdee779d	-0.11643908
52	0xbe74378e	-0.23849317
53	0xbe5cd100	-0.21564102
54	0x3c23bbd7	0.009993515
55	0xbddd90fb	-0.108186685
56	0xbd8cae79	-0.068692155
57	0xbe5a2dbb	-0.21306507
58	0xbec57b52	-0.38570648
59	0x3e38ee18	0.18059576
60	0x3ec368e0	0.3816595
61	0x3d0afb35	0.033930976
62	0x3ecbf054	0.39831793
63	0xbf02d86f	-0.511115
64	0xbd3332fe	-0.0437498
65	0xbcf1f68e	-0.029536512
66	0xbece2c7b	-0.4026831
67	0xbd8f6db8	-0.07003349
68	0x3e27e9eb	0.16397826
69	0x3e3a2f81	0.18182184
70	0xbe906747	-0.28203794
71	0xbd72d2cb	-0.05928306
72	0x3ad23521	0.0016037562
73	0x3ebff432	0.37490994
74	0xbdc89085	-0.0979319
75	0xbef7503e	-0.48303407
76	0xbd95d5d6	-0.073161766
77	0xbe9eed6c	-0.31040514
78	0xbda0988f	-0.07841598
79	0x3d5dc28e	0.05414062
80	0xbe935fde	-0.28784078
81	0xbd51bac8	-0.05120352
82	0xbc8b2353	-0.016984617
83	0x3c456c0c	0.012049686
84	0xb9047900	-0.00012633577
85	0xbd404b10	-0.046946585
86	0x3ca22e70	0.019797534
87	0xbd1b54d2	-0.037922688
88	0x3cca923e	0.024727937
89	0xbbb0e1c0	-0.0053980052
90	0xbea108a1	-0.31451896
91	0xbe8ed381	-0.2789574
92	0xbed84df8	-0.42246985
93	0xbee244a2	-0.44192988
94	0xbe777ff0	-0.24169898
95	0x3e97885b	0.29596218
96	0x3dc8fb94	0.0981361
97	0xbe7b3797	-0.24532925
98	0xbe160ad1	-0.14652564
99	0x3b1e636d	0.002416815
100	0x3c9a7c48	0.01885809
101	0xbe3f3442	-0.18672279
102	0xbe83f95f	-0.25776193
103	0xbefe8f0b	-0.49718508
104	0xbe9bf380	-0.30459213
105	0xbeb5755d	-0.35441104
106	0xbee814c4	-0.45328343
107	0xbec32b61	-0.38119033
108	0x3d25ce5c	0.040480003
109	0x3ea15832	0.315126
110	0xbeb6a17d	-0.3567008
111	0xbed35aa6	-0.41280097
112	0xbc8cccec	-0.017187558
113	0xbe1883ca	-0.14894024
114	0xbd801584	-0.06254104
115	0x3e299270	0.16559768
116	0xbd86f5d5	-0.065898575
117	0x3b82eefe	0.0039957752
118	0xbc16fc47	-0.009215421
119	0xbd8edd52	-0.06975807
120	0x3d192341	0.037387136
121	0x3dfc2232	0.1231121
122	0x3e1938bd	0.1496305
123	0x3d5e2e69	0.05424348
124	0xbee65c3c	-0.44992244
125	0xbdd46594	-0.10370937
126	0x3e601ac5	0.21885212
127	0x3e83a9ee	0.25715584
128	0xbbc38460	-0.005966708
129	0xbc23a849	-0.009988853
130	0x3d5d2017	0.05398568
131	0xbce72dda	-0.028220106
132	0xbdfc9b09	-0.12334258
133	0xbd97a55b	-0.07404586
134	0xbe2aaa0a	-0.16666427
135	0x3db66d1f	0.08907532
136	0x3e9da56f	0.30790278
137	0x3c7ae618	0.015313648
138	0x3e258927	0.161656
139	0xbb46003d	-0.0030212544
140	0xbe8831fc	-0.26600635
141	0xbc183021	-0.009288819
142	0xbe2b00b3	-0.16699485
143	0xbe86aab5	-0.26302114
144	0x3b8fbf33	0.0043868064
145	0x3e4924b8	0.19642913
146	0xbdee7b12	-0.116445675
147	0x3e7b7902	0.2455788
148	0x3e07768e	0.13228819
149	0xbeab9005	-0.33508316
150	0x3cb489d8	0.022038385
151	0x3da77672	0.081768885
152	0xbcc6043c	-0.024171941
153	0xbdfa38c9	-0.12217862
154	0x3e19bc0f	0.15013145
155	0xbe5a2ffa	-0.21307364
156	0xbb9080e6	-0.004409897
157	0x3e215772	0.15756014
158	0xbeae5848	-0.34051728
159	0x3d67fbc0	0.056636572
160	0xbcddb296	-0.027062695
161	0xbe22acf9	-0.15886296
162	0x3eb6644a	0.3562339
163	0xbe71729a	-0.23578873
164	0xbd8865d4	-0.06660047
165	0xbd16f5e6	-0.0368556
166	0xbeb9a7a6	-0.36260718
167	0xbcec599a	-0.02885132
168	0x3ee388e6	0.44440383
169	0x3e179efb	0.1480674
170	0x3daf3d4e	0.08556615
171	0xbed61705	-0.41814438
172	0xbd9eb0dc	-0.07748577
173	0xbca3e06b	-0.020004472
174	0x3dc98f01	0.09841729
175	0x3e3647b9	0.17800798
176	0xbccfe737	-0.025378807
177	0x3e30860b	0.17238633
178	0x3e3aa748	0.18227875
179	0xbcb757ce	-0.022380736
180	0x3e725973	0.23666935
181	0x3d239b75	0.039943177
182	0xbde06893	-0.10957446
183	0x3ca254d0	0.019815832
184	0x3e23249f	0.15931939
185	0xbbd90995	-0.0066234567
186	0xbe06ab3f	-0.13151263
187	0xbe7278f2	-0.2367895
188	0xbdfee2ba	-0.124455884
189	0xbedc0173	-0.42969856
190	0xbc920ad5	-0.01782743
191	0xbe5ee552	-0.21767166
192	0xbdd66208	-0.10467917
193	0x3cd31c50	0.025770336
194	0xbe02d2c0	-0.12775707
195	0x3e461989	0.19345678
196	0x3e8dc97b	0.2769278
197	0x3e1bc70d	0.1521265
198	0xbe9271c8	-0.28602433
199	0x3e6cee01	0.23137666
200	0xbe24f310	-0.16108346
201	0xbdbb33be	-0.091407284
202	0x3e297c6c	0.1655137
203	0xbec4b762	-0.3842116
204	0xbdbccfb8	-0.09219307
205	0x3e89a5ff	0.26884457
206	0x3d0361ba	0.03207562
207	0xbe168582	-0.14699367
208	0x3eb538df	0.35394952
209	0xbd9f3830	-0.07774389
210	0x3e85823f	0.26075932
211	0x3e7104b9	0.23536958
212	0xbe72fc13	-0.23728971
213	0xbdbe42bc	-0.09290072
214	0x3ddbf7e7	0.10740643
215	0xbdf23b8f	-0.11827766
216	0xbe3632f2	-0.17792872
217	0x3d81a3f3	0.06330099
218	0xbc89ee8f	-0.016837386
219	0x3d7c6124	0.061616078
220	0x3e8ed535	0.2789704
221	0xbd9fb2f0	-0.077978015
222	0x3cc53a38	0.024075612
223	0x3e0396b8	0.12850463
224	0x3da7c20f	0.081913106
225	0x3e861c40	0.26193428
226	0xbdd97acb	-0.10619124
227	0xbd0246af	-0.03180569
228	0x3e3f5297	0.1868385
229	0xbdd6f2e1	-0.10495544
230	0xbd860d81	-0.065455444
231	0x3deb175a	0.11479063
232	0xbdc0b763	-0.09409978
233	0xbdde362f	-0.108501785
234	0xbd3da757	-0.046302166
235	0x3c92a067	0.017898751
236	0xbd356f07	-0.044295337
237	0x3e0e63ac	0.1390521
238	0xbd8f7655	-0.07004992
239	0xbda216da	-0.07914515
240	0xbda7d6ec	-0.0819529
241	0xbc63c9c5	-0.013903086
242	0xbdcae945	-0.09907774
243	0x3cb1abd9	0.021688389
244	0x3d4bcb6f	0.049754556
245	0xbe86c1a2	-0.26319605
246	0x3ca0a1d3	0.019608414
247	0x3dfa93a3	0.12235191
248	0xbe2cf819	-0.16891517
249	0xbe1d5ed3	-0.15368204
250	0xbeeda1f5	-0.46412626
251	0xbd33be3c	-0.043882594
252	0x3ded2418	0.1157915
253	0x3e224e9c	0.158503
254	0x3e31a30a	0.1734735
255	0x3d1c35ff	0.038137432

conv2.bias f4 [64]
0	0xbe0b6b26	-0.13615093
1	0xbdf04576	-0.117319986
2	0xbea5bb40	-0.32369423
3	0x3bbb9402	0.005724431
4	0xbc39d7b3	-0.011342931
5	0xbdc6c32b	-0.09705194
6	0xbdfb0a35	-0.12257806
7	0xbe37c949	-0.17947878
8	0xbe7fd966	-0.24985275
9	0x3d941623	0.07230785
10	0xbe41ad36	-0.18913731
11	0xbe4df07d	-0.2011127
12	0xbd3f3dab	-0.04668967
13	0xbec95668	-0.39323735
14	0xbe43b45e	-0.19111773
15	0xbdc84a6d	-0.097798206
16	0xbe910905	-0.28327194
17	0xbdefad42	-0.11702968
18	0xbda71a66	-0.08159332
19	0xbd044843	-0.032295477
20	0xbe2b4e5c	-0.1672911
21	0xbe6fc2fe	-0.23414227
22	0xbb71634b	-0.0036832865
23	0xbca1c0da	-0.01974528
24	0xbe67e983	-0.22647671
25	0xbd475f9a	-0.048675157
26	0xbc4b3fc2	-0.012405338
27	0xbe5d1015	-0.21588166
28	0xbe44d631	-0.19222333
29	0x3d3600e1	0.044434432
30	0xbe37794c	-0.17917365
31	0xbdd2ecbb	-0.10299059
32	0xbdf95a94	-0.121754795
33	0xbe0a2251	-0.13489653
34	0x3d9ada36	0.07561152
35	0xbe49d3bd	-0.19709678
36	0x3b02d40f	0.0019962823
37	0xbdf91522	-0.12162234
38	0xbe16cf58	-0.14727533
39	0xbe4bd01e	-0.19903609
40	0x3db2a3d2	0.087226525
41	0xbe6e3fa3	-0.23266463
42	0x3d4dd942	0.05025602
43	0xbde334e6	-0.11094074
44	0xbdf6d9ad	-0.12053237
45	0xbe020c34	-0.12699968
46	0xbe7898bd	-0.24277015
47	0xbdb045fe	-0.086071
48	0x3c030673	0.007997143
49	0xbe9a7190	-0.30164766
50	0xbd271815	-0.04079445
51	0xbdc1098e	-0.094256505
52	0xbda7436c	-0.081671566
53	0xbea3c4bf	-0.31986043
54	0x3e21698a	0.15762916
55	0xbb80728f	-0.0039199064
56	0xbe4642cc	-0.19361418
57	0xbe1009bd	-0.14066215
58	0xbdbbe640	-0.09174776
59	0xbe1500ec	-0.14551133
60	0xbd10fda0	-0.035398126
61	0xbd8db4d7	-0.06919258
62	0xbe71183e	-0.23544404
63	0xbe5a9c17	-0.21348606

fc.weight f4 [10, 3136]
0	0xbc370004	-0.011169437
1	0x3d18da47	0.03731754
2	0x3d5ce17d	0.05392598
3	0xbcb1171e	-0.021617468
4	0x3de00808	0.10939032
5	0xbd5d7ee3	-0.054076087
6	0xbc18e7e5	-0.009332632
7	0x3cb5b6ee	0.022181954
8	0xbe22bce5	-0.1589237
9	0xbe87de9f	-0.26537034
10	0x3d1f10aa	0.03883425
11	0x3cf18e6f	0.029486863
12	0xbe80e8ed	-0.25177708
13	0xbdd338aa	-0.10313542
14	0xbd37b120	-0.044846654
15	0xbeb57cef	-0.3544688
16	0x3dd4f811	0.103988774
17	0xbcc50df4	-0.024054505
18	0xbe32d187	-0.17462741
19	0xbeb1367f	-0.3461189
20	0x3de7a7e7	0.11311322
21	0xbeae166b	-0.3400148
22	0xbec60e86	-0.38682956
23	0xbd14447a	-0.036198117
24	0xbe7ad053	-0.24493532
25	0x3e80781f	0.25091645
26	0x3e848dda	0.25889474
27	0x3b6df9ed	0.0036312297
28	0x3c917d08	0.017759815
29	0x3e2168b5	0.15762599
30	0x3dc30242	0.09521915
31	0xbc3b71f8	-0.0114407465
32	0x3dea14a3	0.114297174
33	0x3e140107	0.14453517
34	0x3e6eb2db	0.23310415
35	0xbdbc26d2	-0.09187092
36	0xbea15a02	-0.31513983
37	0x3d191fb4	0.03738375
38	0x3d8e7133	0.06955185
39	0x3d930cfa	0.071802095
40	0x3b1e3c24	0.0024144733
41	0x3cea11d1	0.028572949
42	0x3c0ccc9f	0.008593707
43	0x3e351c4f	0.1768658
44	0xbe58e259	-0.21180095
45	0xbeb93522	-0.3617335
46	0x3cabb094	0.020958222
47	0xbe942021	-0.28930762
48	0xbdf2c50f	-0.11853992
49	0x3de1f0db	0.11032268
50	0x3e9c5c56	0.30539197
51	0xbd6f7354	-0.058459595
52	0x3dab7ea7	0.083737664
53	0xbe5688d4	-0.20950633
54	0x3dff82fb	0.124761544
55	0xbc84ed84	-0.016226538
56	0x3e0c066c	0.13674325
57	0xbd0fffba	-0.03515599
58	0xbdbfbba1	-0.09361959
59	0x3da2e478	0.07953733
60	0x3d50fda8	0.051023155
61	0x3de13293	0.109959744
62	0xbd83b9f0	-0.06431949
63	0x3e38e9a6	0.1805788
64	0xbc4b1407	-0.012394912
65	0x3e109dd1	0.14122702
66	0x3ea59988	0.32343698
67	0xbf4eeba6	-0.8082832
68	0xbea4ec06	-0.32211322
69	0xbe9a9239	-0.30189684
70	0x3dba6f5f	0.091032736
71	0x3e0d15e7	0.13777886
72	0x3e16598f	0.14682601
73	0xbe7d6fef	-0.2474973
74	0x3dc03321	0.09384752
75	0x3e83d72b	0.25750098
76	0xbdc4f892	-0.096177235
77	0x3dcde7e4	0.10053995
78	0xbe156da4	-0.14592606
79	0x3e446a62	0.19181207
80	0x3e3edc00	0.18638611
81	0x3cbc0a0c	0.02295401
82	0x3cc66c39	0.024221526
83	0x3e9f5a73	0.31123695
84	0xbe8bfd3e	-0.27341646
85	0xbecac869	-0.39606026
86	0xbf1d3071	-0.6140204
87	0xbdc821d7	-0.097720794
88	0xbd205d3b	-0.03915141
89	0xbd820b28	-0.06349784
90	0x3e21707f	0.1576557
91	0x3db7bd51	0.08971656
92	0xbf0bf9b3	-0.54677886
93	0xbf292aec	-0.6608112
94	0xbf07a387	-0.529839
95	0x3d0b276f	0.033973154
96	0x3e5dde0b	0.21666734
97	0x3db4cb1a	0.08827801
98	0xbc4038a0	-0.01173225
99	0xbde7c1e7	-0.11316281
100	0x3e140e4d	0.1445858
101	0x3e9c0382	0.30471426
102	0xbe49f176	-0.19721016
103	0xbe015a20	-0.12632036
104	0xbd2c4569	-0.042058382
105	0xbe48037b	-0.19532578
106	0x3c68d0be	0.014209924
107	0x3daf0a69	0.085469075
108	0xbd910f1d	-0.07082961
109	0x3e5219ec	0.20517701
110	0xbdbca4d1	-0.09211124
111	0x3d2381f2	0.039918847
112	0xbd99c421	-0.07508112
113	0x3bf6c7e6	0.007531154
114	0x3da046d5	0.0782601
115	0x3e0cdf42	0.13757041
116	0xbe2d8ae4	-0.16947514
117	0x3d2070a8	0.039169937
118	0x3ddc7c0f	0.1076585
119	0xbe3f9504	-0.18709189
120	0xbe250d26	-0.16118297
121	0xbdad6893	-0.084672116
122	0x3d76692b	0.06015889
123	0xbde7793c	-0.113024205
124	0x3e084240	0.13306522
125	0xbe3bd2eb	-0.18342178
126	0x3c7df7e6	0.015500998
127	0x3d902f66	0.070402905
128	0xbf126de3	-0.57198924
129	0x3e1e16db	0.15438406
130	0xbe751161	-0.23932411
131	0x3e53c304	0.20679861
132	0x3cbf15f3	0.023325896
133	0xbe9f9bb8	-0.3117349
134	0xbe066f8b	-0.13128488
135	0xbe279c50	-0.16368222
136	0x3c938d77	0.018011792
137	0xbdcd9902	-0.100389495
138	0x3d96e148	0.07367188
139	0xbe9fb310	-0.311913
140	0x3ccc686c	0.024952136
141	0x3e39030c	0.18067569
142	0x3e49b97e	0.19699666
143	0x3dd19390	0.102332234
144	0xbe0a423a	-0.13501826
145	0xbeb4c949	-0.35309818
146	0xbed71651	-0.42009214
147	0xbb5703ed	-0.0032808736
148	0xbe836c63	-0.2566863
149	0x3daa552c	0.083170265
150	0xbebac060	-0.36474895
151	0x3e2d30e9	0.16913189
152	0x3ec1fe9b	0.3788956
153	0xbcbfbc46	-0.023405205
154	0xbe0099df	-0.12558697
155	0x3b36d80e	0.0027899775
156	0xbda91c09	-0.082573004
157	0xbe214585	-0.15749176
158	0x3dce824a	0.100834444
159	0xbe93b4d0	-0.28848886
160	0xbe75c121	-0.23999454
161	0x3ce18bf5	0.027532557
162	0xbb6243ec	-0.0034525348
163	0xbd4a964b	-0.049459737
164	0xbd9e8cd7	-0.07741707
165	0xbdebea4e	-0.115192994
166	0x3b2b858a	0.0026172125
167	0xbe1408ce	-0.14456484
168	0x3d3308e3	0.043709647
169	0x3e3e1ee7	0.18566476
170	0x3de6f8d7	0.11277931
171	0xbe68fa7c	-0.22751802
172	0xbe396405	-0.1810456
173	0xbe12cb9e	-0.14335486
174	0x3d25cc0e	0.040477805
175	0xbd05f903	-0.03270818
176	0x3dc96c07	0.09835058
177	0xbcaeff08	-0.021361843
178	0xbe9244e9	-0.285682
179	0xbe41e2d2	-0.18934181
180	0xbcee5a83	-0.029095894
181	0x3d6ee590	0.058324397
182	0x3e81969a	0.25310212
183	0x3edfb1fe	0.43690485
184	0xbdfb7a19	-0.12279148
185	0xbdf3d6c7	-0.119062
186	0x3e805825	0.2506725
187	0x3a3bfb2c	0.00071709114
188	0x3c38775b	0.011258925
189	0xbb366456	-0.00278308
190	0xbe9ca6c6	-0.30595988
191	0xbea8b735	-0.32952276
192	0xbc973660	-0.018458545
193	0x3ecb1767	0.39666292
194	0xbca72ee5	-0.020408103
195	0xbabcf384	-0.0014415835
196	0x3d81e19b	0.06341859
197	0x3cc59965	0.024120996
198	0x3bf3c826	0.007439631
199	0x3c4f8de4	0.012668107
200	0xb9fbb1b8	-0.00048006861
201	0x3d90f2c9	0.070775576
202	0x3d0ab764	0.0338663
203	0x3cdc7519	0.026911305
204	0xbb45a434	-0.0030157687
205	0x3ba09d94	0.0049015973
206	0x3d1eba1a	0.0387517
207	0x3d28fded	0.041257787
208	0x3d59dcf5	0.053189237
209	0x3d96967c	0.07352921
210	0x3d1ff315	0.03905018
211	0x3cee437d	0.029084915
212	0x3c98d582	0.018656496
213	0x3d0bb895	0.034111578
214	0x3cb13bf0	0.021635026
215	0x3d00cfab	0.031448048
216	0x3c898cfe	0.016790863
217	0x3d7309b5	0.05933543
218	0x3d7c7516	0.0616351
219	0x3ccc7757	0.02495925
220	0x3ce3e895	0.027820865
221	0x3d20749d	0.03917371
222	0x3d49faa6	0.049311303
223	0x3cf5af12	0.029990707
224	0x3d91f5ba	0.07126947
225	0x3d2bb656	0.041921936
226	0x3d1652cd	0.03670006
227	0x3d58964d	0.052877713
228	0x3cd77c71	0.026304455
229	0x3d0e3400	0.03471756
230	0x3c159bff	0.009131431
231	0x3d1e321c	0.038622007
232	0x3d677a8f	0.056513365
233	0x3d4a24f6	0.049351655
234	0x3d4f0682	0.050543316
235	0x3ce0d9b7	0.027447565
236	0x3d527e5f	0.051390048
237	0x3ca59098	0.02021055
238	0x3d046f7e	0.03233289
239	0x3d1bd707	0.038046863
240	0x3d8f0a7e	0.06984423
241	0x3d3948c1	0.0452354
242	0x3d2bcbef	0.041942533
243	0x3b81e92b	0.0039645634
244	0x3c7409fe	0.01489496
245	0xbe9e581a	-0.3092659
246	0x3e9d8562	0.30765826
247	0xbdd9b6d6	-0.10630576
248	0x3dd428aa	0.103593186
249	0xbcaff678	-0.02147983
250	0xbea0e5dc	-0.3142537
251	0xbd97df56	-0.07415645
252	0x3cd588e0	0.026066244
253	0xbe244bd7	-0.16044556
254	0xbe41936f	-0.18903898
255	0x3d8849e0	0.066547155

fc.bias f4 [10]
0	0x3d957d5b	0.072993
1	0x3e240194	0.16016227
2	0x3d996422	0.07489802
3	0xbd210274	-0.03930898
4	0xbdd62886	-0.10456948
5	0xbb4053b7	-0.0029346773
6	0xbc9dd9ca	-0.019268889
7	0xbd1e901f	-0.038711663
8	0xbd540bd5	-0.051769096
9	0xbcf1b6ce	-0.029506113
